…
    "model.add(Conv2D(256, 3, padding=\"same\", activation=\"relu\"))\n",
    "model.add(GlobalAveragePooling2D())\n",
    "model.add(Dense(num_classes))\n",
    "model.add(Activation(\"softmax\"))"
   ]
  },
  {
   "cell_type": "code",
   "execution_count": 4,
   "metadata": {},
   "outputs": [
    {
     "name": "stdout",
     "output_type": "stream",
     "text": [
      "Model: \"sequential\"\n",
      "_________________________________________________________________\n",
      "Layer (type)                 Output Shape              Param #   \n",
      "=================================================================\n",
      "conv2d (Conv2D)              (None, 224, 224, 32)      896       \n",
      "_________________________________________________________________\n",
      "conv2d_1 (Conv2D)            (None, 224, 224, 32)      9248      \n",
      "_________________________________________________________________\n",
      "max_pooling2d (MaxPooling2D) (None, 112, 112, 32)      0         \n",
      "_________________________________________________________________\n",
      "conv2d_2 (Conv2D)            (None, 112, 112, 64)      18496     \n",
      "_________________________________________________________________\n",
      "conv2d_3 (Conv2D)            (None, 112, 112, 64)      36928     \n",
      "_________________________________________________________________\n",
      "max_pooling2d_1 (MaxPooling2 (None, 56, 56, 64)        0         \n",
      "_________________________________________________________________\n",
      "conv2d_4 (Conv2D)            (None, 56, 56, 128)       73856     \n",
      "_________________________________________________________________\n",
      "conv2d_5 (Conv2D)            (None, 56, 56, 128)       147584    \n",
      "_________________________________________________________________\n",
      "max_pooling2d_2 (MaxPooling2 (None, 28, 28, 128)       0         \n",
      "_________________________________________________________________\n",
      "conv2d_6 (Conv2D)            (None, 28, 28, 256)       295168    \n",
      "_________________________________________________________________\n",
      "conv2d_7 (Conv2D)            (None, 28, 28, 256)       590080    \n",
      "_________________________________________________________________\n",
      "global_average_pooling2d (Gl (None, 256)               0         \n",
      "_________________________________________________________________\n",
      "dense (Dense)                (None, 20)                5140      \n",
      "_________________________________________________________________\n",
      "activation (Activation)      (None, 20)                0         \n",
      "=================================================================\n",
      "Total params: 1,177,396\n",
      "Trainable params: 1,177,396\n",
      "Non-trainable params: 0\n",
      "_________________________________________________________________\n"
     ]
    }
   ],
   "source": [
    "# Liczba parametrów w pierwszej warstwie to 27*32 + 32 = 896 (bo filtr ma 27 pikseli: 3x3x3 i są 32 filtry + bias)\n",
…
